Models/GCN-Model-Acc-71.pth (torch, 23668 bytes, 5 tensors)

conv1.bias f4 [64]
00000000: 19a5 d43d 9a8c d0be a8ac ea3d 3921 bb3d
00000010: 19e7 d63d 4d94 c2be d28c b73d 9149 c73d
00000020: e34e c53d 47ab c53d 69b8 fb3d 1bd2 b13d
00000030: 8494 c83d 8209 eb3d 2437 d0be 8d77 e53d
00000040: eaf0 c13d 9fc5 d73d fdac c3be 8821 f73d
00000050: afb2 ea3d d907 cabe 19b2 d9be 4b23 da3d
00000060: c06a c53d 75b0 c9be 7782 cfbe b545 cebe
00000070: d2ca c8be e0c4 c93d e862 c1be 42de a3be
00000080: e3d7 cdbe 9916 d1be c376 d23d 7876 c7be
00000090: 7667 d03d ff7a c93d a2a9 d33d b96f a13d
000000a0: 3057 cbbe 3af9 bdbe 8fc4 d13d 3e11 db3d
000000b0: b3f1 bd3d 3693 d73d a39f c03d 3842 adbe
000000c0: e149 ed3d 2a2c d4be e70d b03d 98c2 c23d
000000d0: 4916 c73d fc8c b63d a442 cc3d 87fe bdbe
000000e0: cd77 ea3d b508 d1be 689f d43d 02e9 c13d
000000f0: 8352 bb3d fafb d23d 241e cd3d 0097 c9be
0.103830524 -0.4073227 0.11458713 0.09137196 0.10493297 -0.3800377 0.08962406 0.097308286
0.09634187 0.09651809 0.12291033 0.086826526 0.09793952 0.11476423 -0.4066707 0.11204443
0.09469779 0.1053574 -0.38217917 0.120669425 0.114598624 -0.39459112 -0.4251869 0.10651263
0.096395016 -0.3939244 -0.40529224 -0.40287557 -0.3921724 0.09852004 -0.37770772 -0.32005507
-0.4020377 -0.40837553 0.10276558 -0.38957572 0.101759836 0.09837913 0.10335089 0.078826375
-0.39714956 -0.37104207 0.10242569 0.10696648 0.09274616 0.10526125 0.09405448 -0.33839583
0.11586357 -0.41439945 0.08596402 0.09509772 0.097210474 0.089136094 0.09973648 -0.3710825
0.114486314 -0.40826955 0.10381967 0.09468271 0.09146597 0.10301967 0.100155145 -0.39373016

conv1.lin.weight f4 [64, 16]
00000000: 7f63 31bb a3a3 b5bb b7a0 8e3c 6689 1fbd
00000010: a464 f5bb 8e56 f3bc b407 8ebb 2700 d8bb
00000020: 1e4c 0abd 0bf1 ec3c a28f 16bc 20e5 083a
00000030: 7ad8 81bc 0544 dabb eefd 09bd 4203 e2bc
00000040: b1a4 f6bc fa22 08bd cfe9 d6bc b22d acbc
00000050: 74a8 dbbc abfc 4dbc 0551 febc 4401 2abb
00000060: 8c27 8dbc 5596 19bd 43ea f7bc 5b1e dbbc
00000070: 9510 f2bc 3c69 00bd cdac 97bb 2d68 4ebc
00000080: a746 df3c 622f ee3c 5f5c 363d f00f c339
00000090: fe54 0bbc d15f 9aba d319 323b 2bbd 93bb
000000a0: 17ec bdba 9667 333d 13a4 e23c dd55 aa3c
000000b0: bd58 d13c 7bfa 4d3c b294 babc f0cc a6bb
000000c0: 5981 093d 5ce5 233d c562 183d 3294 38bc
000000d0: 10e0 19bb 82d7 cd39 5fe3 80bc ecad 6ebc
000000e0: fff6 7abb 17eb 463d f77d 493c 90af c6bb
000000f0: 9704 f0bb e790 653c 1f2a 91bc ea68 8ab8
00000100: 0f6a 0f3d fa81 263d 847f 513d 2a20 cabb
00000110: c501 9d3c 6509 113c 1b68 0d3b e905 643c
00000120: 5e58 103c aac5 703d 7ade e73c 85c9 163c
00000130: 75cc 643c f0d3 c33c a51a 623c d5fa 433c
00000140: 3e89 1dbd edfd 04bd e8a4 19bd 3f81 00bd
00000150: 0b68 1cbd c0a6 e7bc 5c0e f6bc 844c abbc
00000160: b16e afbc 3556 2fbd 8193 34bd 68c0 d2bc
00000170: 8703 17bd 6ad5 3cbd ec84 acbc ccd5 08bd
00000180: 2142 d43c 184e 033d db33 353d 634f b0bb
00000190: 8d9a 8bbc f539 80bc a6b0 4fbc 8d0a b6bc
000001a0: 0a95 cbbc 3ba7 403d 0dab ae3a 3c32 58bc
000001b0: 184a 2cbc 09e3 3bbb 7dec 9fbc 43c0 1cbc
000001c0: 6e38 a83c 3a03 2b3d e2a8 1d3d dbf1 7ebc
000001d0: ecba bebb 51b7 66bc 93ea 13bc 5270 bfbb
000001e0: 28a0 1bbc 46c2 fd3c 1913 a83c 6e24 803b
000001f0: 804a 9bbb 3473 b93c c616 86bc c63c d8bc
00000200: 8ac0 423d 8d04 973c 81c6 233d 81eb 1bbc
00000210: 5dfd b43b 88f6 053b 31b5 20bb 651c 76bb
00000220: c282 52bc 0db4 393d ea41 e33c 2dee 8e3b
00000230: be5a 6e39 19fc 6b3c 7675 0db9 2473 e7bb
00000240: 1e1b 1a3d 309b 263d 846e 493d 9b02 cb3b
00000250: 90b8 d13c 9850 af3b 6bb8 583b 7299 09bc
00000260: e979 cf3b cb2f 883d 7432 a73c 4ab0 8a3b
00000270: adb2 5d3b d593 033d 2be2 dabb fe86 c9bb
00000280: b5b6 b63c 64d9 3a3d c75d e03c eddc 193c
00000290: bc86 21b9 9913 0fbc 5902 14bc f212 a53a
000002a0: ea32 f83b b272 423d b496 af3c 3c78 24bb
000002b0: d13e 223c ccf1 5d3c 174b debb dbc7 04bc
000002c0: a3b9 f13c 99dd 323d 9174 0e3d 79a1 783c
000002d0: 43d4 1c3c 818d 053c e382 5b3b 33db f23b
000002e0: 9797 db3b 2e64 363d b24e 0e3d 4a14 923c
000002f0: 0e47 c23c 0484 c13c 54e7 99ba 89d4 313c
00000300: cda3 603c 233a 863c 2876 d33c 8f7f 33bc
00000310: bacf 203b 5d9d 90bc 126a 67bc 2099 0cbc
00000320: fd70 14bc bc6c 253d fca0 3a3b aa45 7a3a
00000330: bc48 b8b9 d069 1a3c 18ae 8cbc f647 c43a
00000340: e849 ea3c 86a1 123d 8f9c ef3c 8dbc 34bc
00000350: 485f 20bc 0969 8cbc f06a e2bb 24d9 a4b8
00000360: 985d b6bb 928d f83c 1b83 653c 6399 3ebc
00000370: c4e7 ebbb 2a8a 23ba 7cdd b7bc de26 13bc
00000380: 0e2d e8bc db7d 10bd 95bd 14bd d4d3 9cbc
00000390: 91ba 93bc 1ba2 bbbc 5160 06bd 7a33 92bc
000003a0: 77f0 86bc c3be 2cbd 32b0 eabc 0b65 cebc
000003b0: 89bb 02bd 68bc f4bc 8c79 98bc 8ca9 bdbc
000003c0: 2d26 183d 29b6 1b3d 5deb 233d 4cf2 4eba
000003d0: 32cb 1f3c 628c 103c b244 1abb 292b 96bb
000003e0: bbe3 9c3c e058 5d3d eecf a73c 25a6 143c
000003f0: a029 90ba e088 c73c 178d 9fbb c113 83bb
-0.002706736 -0.0055431887 0.01741062 -0.038949393 -0.007488804 -0.029704358 -0.0043344144 -0.006591815
-0.033763997 0.028923532 -0.009189518 0.00052221306 -0.015850294 -0.0066609406 -0.03368943 -0.027589444
-0.030107828 -0.03323648 -0.026234536 -0.021017883 -0.026813723 -0.012572448 -0.031044492 -0.0025940696
-0.017230771 -0.037496883 -0.030263072 -0.026747873 -0.029548923 -0.03135036 -0.0046287538 -0.01259808
0.02725537 0.029075328 0.044521686 0.00037205173 -0.00850415 -0.0011777823 0.0027176037 -0.0045086346
-0.0014489916 0.04379996 0.027666127 0.020792896 0.025555009 0.012571926 -0.022775982 -0.0050903484
0.03357062 0.040013656 0.03720357 -0.011265801 -0.00234795 0.00039261213 -0.015733419 -0.014567833
-0.0038294194 0.048564043 0.012298099 -0.006063409 -0.007324766 0.014011598 -0.01772028 -6.5998946e-05
0.035013255 0.0406513 0.051147 -0.006168385 0.019165883 0.0088523375 0.0021576944 0.013917425
0.008810131 0.058782257 0.028304327 0.009203319 0.013964762 0.02390477 0.013800298 0.0119616585
-0.038460962 -0.032468725 -0.037510782 -0.03137326 -0.03818516 -0.028277755 -0.030036144 -0.020910509
-0.021415086 -0.042806823 -0.044085983 -0.025726512 -0.0368686 -0.046101965 -0.021059476 -0.033407018
0.025910439 0.032056898 0.044238906 -0.0053805574 -0.017041469 -0.015652636 -0.012676394 -0.022221828
-0.02485134 0.047034483 0.0013326124 -0.013195571 -0.010515712 -0.002866926 -0.019521946 -0.009567323
0.02053472 0.041751124 0.038491137 -0.0155605925 -0.0058206227 -0.014081792 -0.009028095 -0.005842247
-0.009498633 0.030976426 0.020516919 0.0039105928 -0.0047391057 0.022637941 -0.016368281 -0.026396167
0.0475469 0.018434787 0.03998423 -0.009516598 0.0055233673 0.0020441134 -0.002452206 -0.0037553546
-0.012848558 0.045337725 0.027741391 0.004361889 0.00022731253 0.0144033665 -0.00013490565 -0.0070632864
0.037623517 0.040675342 0.04917766 0.006195379 0.025600702 0.0053501837 0.0033068906 -0.008398401
0.0063316715 0.06649741 0.0204098 0.004232441 0.0033828423 0.032123405 -0.0066797934 -0.0061501255
0.022303918 0.045617476 0.027388467 0.009391052 -0.00015404349 -0.0087327 -0.009033763 0.0012594147
0.007574429 0.047472663 0.021434166 -0.002509608 0.009902672 0.013546418 -0.0067838538 -0.00810429
0.029507464 0.043668363 0.034779135 0.015175217 0.0095720915 0.008151413 0.0033494763 0.0074113845
0.0067014205 0.044529133 0.03474302 0.01783194 0.023715522 0.02362252 -0.0011741915 0.010853895
0.013710928 0.016385144 0.025813177 -0.010955705 0.0024537877 -0.017653162 -0.01412441 -0.00858143
-0.009060142 0.0403869 0.0028477302 0.0009547124 -0.00035149406 0.009424642 -0.017172858 0.0014975059
0.028599694 0.035798572 0.029249458 -0.011031282 -0.009788342 -0.017139928 -0.0069097206 -7.860575e-05
-0.0055653565 0.030340943 0.014008309 -0.01163325 -0.0071992595 -0.00062385446 -0.02244448 -0.008981435
-0.028341796 -0.035276275 -0.036313612 -0.019143976 -0.018033298 -0.022904446 -0.0328067 -0.017846812
-0.016472084 -0.042174112 -0.02864847 -0.025194665 -0.03191713 -0.029874995 -0.018612646 -0.023152135
0.037145782 0.03801552 0.04001938 -0.00078943814 0.009753035 0.008822532 -0.002353948 -0.004582782
0.01915156 0.054039836 0.02048489 0.009072815 -0.0010998733 0.02435726 -0.004869114 -0.0040001576

conv2.bias f4 [64]
00000000: 4fb9 183e f924 bdb8 7a79 283e ef22 ee3e
00000010: bcf3 d2ba d69e 1ab8 bc05 1bb9 0118 72bb
00000020: 9c13 1b3e 4eba 2c3e 29ac f43e 6224 12bf
00000030: 505d 76bb 8172 2bbc a2df 183e e3ea 053f
00000040: 6a09 99bb ded2 993e 17eb f93e 1655 6cba
00000050: 87a9 53bb 4b99 bbb8 71c2 203e a2bd b5ba
00000060: fd46 66bf 9a15 54b8 3ae3 523e 70c6 db3e
00000070: fb13 58ba 7bd7 0fbf 9561 e3be 5292 ea3e
00000080: bf54 fdba e432 bc3c 2c0a 4c3e 47d7 c9ba
00000090: ee0d 46b8 e0ff 403e d1ac 6dba 9b48 e9ba
000000a0: 51d7 3e3e a583 30b9 5304 35b9 fa3e 29ba
000000b0: cfc1 25bb e260 0fbf ecee 10bf 759d ee3e
000000c0: 3fc8 8cb7 2af7 453e 809f 013f e757 5cbb
000000d0: 6938 483e 5c69 42bb b1fc 443e 1b85 003f
000000e0: cdb8 3d3e 1bdb 42bc ca9c 45bb 5ec2 40bb
000000f0: d5e4 05bf 9042 4a3e bdc6 073a 38df 363e
0.1491444 -9.019109e-05 0.1645259 0.46511027 -0.0016094367 -3.686439e-05 -0.00014784088 -0.0036940577
0.15144199 0.16867945 0.47787598 -0.57086766 -0.003759224 -0.010464312 0.14929059 0.52311534
-0.0046703117 0.3004369 0.48812172 -0.00090153643 -0.003229709 -8.945408e-05 0.15699174 -0.0013865719
-0.8995207 -5.0564857e-05 0.20594493 0.42924833 -0.00082427234 -0.5618817 -0.44410387 0.4581476
-0.0019327624 0.022973485 0.19925755 -0.0015399241 -4.721985e-05 0.18847609 -0.0009066584 -0.0017798127
0.18636824 -0.0001683371 -0.00017263116 -0.00064562226 -0.002529252 -0.56007206 -0.56614566 0.46604505
-1.6782547e-05 0.19332567 0.50634 -0.003362173 0.19552769 -0.002966485 0.19237019 0.502031
0.18527527 -0.011893059 -0.0030153268 -0.0029412727 -0.52302295 0.19751954 0.00051794556 0.17858589

conv2.lin.weight f4 [64, 64]
00000000: 6828 7c3c 276f 533b 3d6f 843c 0943 133c
00000010: 409a 5f3c ff29 47ba 39c6 d43b 2e16 923b
00000020: c701 993b 9139 db3c d06f 873c 54c5 06bb
00000030: 6fbe d13b 6fe6 e73b 7a14 9a3c 2127 983b
00000040: dabb 8e3c 82dc ae3b 7a5d 9d3b f0b0 763c
00000050: 3f5c 993c 4a9a 903b 1727 3b3c 87ab fb3b
00000060: 3e2a 343c 671d 2fba de5f 373c 12b5 873b
00000070: 35e9 263b 64b4 553b b04e 2f3c 7128 9b3b
00000080: 6c06 783b a21d c3bb f6e9 193c b9ed 2f3c
00000090: 20ba ba39 bcde 763c 2632 913b 86cb 213c
000000a0: 3a82 fabb 3668 733c 1e32 733c 8257 853c
000000b0: 56a8 a53c 3c8d d13c ea5a 7a3b 6bf9 023b
000000c0: 0367 663b ef40 203b 6086 8d3c 85d8 5c3b
000000d0: dd50 193b 883a 3039 4d0b 47bc 261c 46b9
000000e0: 89ac bf3a 4d16 4a3c 2347 963c 4d02 ee3b
000000f0: 13e0 3a3c 7466 df3b 979f 5a3c c822 033b
00000100: c5e2 eeb6 98b9 0236 be98 cbb7 8e5e f3b6
00000110: 4046 9833 0a16 ab36 e54e 1836 a55e 50b7
00000120: 1348 99b7 5c06 80b6 96ca fab7 98aa e134
00000130: 2d5a 0cb7 38c9 bfb6 a76e 4137 76e0 e5b6
00000140: 8bd0 01b8 e0f1 91b5 f6ea 3936 4f4d d4b7
00000150: ec40 9bb7 f29c 1937 606b 6436 72b6 9ab7
00000160: 7e6e d8b5 60f3 01b5 aa2d 0337 0632 7737
00000170: 1a0a 9b36 70f4 85b4 13fa b936 72e8 4436
00000180: 441c c336 557a 8b37 b8c6 51b7 e092 c535
00000190: e234 35b7 aa1e aa36 f157 28b7 4345 84b7
000001a0: a124 4036 1498 b5b6 704c 1db4 9c93 15b8
000001b0: 8afe 09b7 ebfa 83b7 647c ecb7 327f 7936
000001c0: 9c3b 78b6 a478 7437 11d5 82b7 27d7 6bb7
000001d0: 769f 7cb7 79bc d7b7 ecd4 5cb7 713d f136
000001e0: 5c33 8f36 e493 2f37 821a a4b7 6442 bcb7
000001f0: 257d d3b7 5975 64b7 65d5 d0b7 7cc3 08b7
00000200: 9805 523c a968 1d39 1f18 da3c 7eca ea3c
00000210: cd66 9b3c 6eaf 16bb 3842 613c d28f fa3b
00000220: 381e ab3c f591 603c 5262 573d 8fec 483b
00000230: 591d 6a3c 5baf 863c cabb 893c 2414 6e3c
00000240: 2ab6 f23c 43b2 f83c ff72 553b 1736 f13c
00000250: b937 f23c 4d9b 6bba 019f 073c f09b 883c
00000260: c41b 963b f674 08bb 53c8 003c b07b c239
00000270: 54f5 fdb9 648f 94b9 319f 173c 72cc 033c
00000280: 7a4e b7b7 4bc8 2cbc 83e1 7d3c af46 1c3c
00000290: 1286 7e3c e4c7 bf3c bc8e 963b fc6f 843c
000002a0: d77c 37bc 0a9d 613c 3df4 a43c 8b92 023d
000002b0: 9db9 2d3d 29d9 533d f6b5 db3c 7dd2 2c3b
000002c0: 0ffd 3f3c a1b9 7739 ae4f 183d 6c2f 4e3c
000002d0: 888a 213c 26c6 403b ee24 bd3c 1c26 eeb9
000002e0: 0792 1e3c 31f6 1f3c 1fd3 8c3c 8c65 c43c
000002f0: 4794 c13c c6dc 713c 679f 103d 7866 d139
00000300: 5c5a 8ebd eba2 283e 4ff7 99bd a631 8dbd
00000310: ad11 a0bd aace 2b3e f95c a7bd 7fa8 9abd
00000320: 6824 a0bd 5362 acbd 5d98 83bd 6c37 76bd
00000330: 1ab6 90bd 095d 91bd 17f5 223e fd64 8bbd
00000340: 56b9 93bd 4f8b 8bbd 256a 2f3e d22e 96bd
00000350: ddfc a2bd 4577 263e 30ec 273e b6bb 82bd
00000360: 8a1b 9fbd fa94 353e 3ca6 243e b53f 273e
00000370: 2670 263e e3a1 a0bd c283 1f3e 2fa2 093e
00000380: cdcb 2b3e 68a1 2d3e e8a4 9cbd 33df 173e
00000390: f792 8bbd 1e6b 96bd 9dc3 aabd e1c5 91bd
000003a0: 33cd 323e 9578 0f3e dbdb b0bd fa1b abbd
000003b0: c92d a4bd 8da9 9abd 7967 a6bd c130 283e
000003c0: 7bb0 9ebd b1d9 2b3e 32a7 a1bd 7ba3 7abd
000003d0: 1479 90bd 094a 9cbd 801d 91bd e1a6 243e
000003e0: ae4f 94bd 5e74 273e c31f c4bd 2fde 88bd
000003f0: 7494 9abd 1f3a 94bd bc39 9bbd a68e 363e
0.015390493 0.0032262297 0.016166324 0.00898815 0.013647616 -0.00075975055 0.0064933565 0.0044582104
0.0046694013 0.026760848 0.016532809 -0.0020564394 0.0064008753 0.0070770304 0.018808592 0.0046433364
0.017423559 0.005336345 0.004802403 0.015056834 0.018720744 0.004412924 0.011422894 0.0076803598
0.010996399 -0.00066801015 0.01119229 0.0041414583 0.0025468592 0.0032608742 0.010699913 0.0047350456
0.0037845625 -0.0059544602 0.00939416 0.01073783 0.00035615359 0.015067752 0.004431027 0.009875184
-0.0076449187 0.014856389 0.014843492 0.016277079 0.02022187 0.025580041 0.0038201162 0.001998509
0.0035156615 0.0024452766 0.017275989 0.0033698392 0.0023394146 0.00016806473 -0.01214869 -0.00018893238
0.0014623563 0.0123344185 0.018344468 0.007263458 0.0114059625 0.0068176333 0.013343713 0.0020009745
-7.119352e-06 1.947954e-06 -2.4270612e-05 -7.252972e-06 7.09083e-08 5.098763e-06 2.2695688e-06 -1.2419802e-05
-1.8272583e-05 -3.8154376e-06 -2.9896659e-05 4.203364e-07 -8.365646e-06 -5.7156685e-06 1.152946e-05 -6.8508625e-06
-3.0950217e-05 -1.0873737e-06 2.7703913e-06 -2.5308369e-05 -1.8507671e-05 9.156052e-06 3.4037148e-06 -1.8443188e-05
-1.6125412e-06 -4.84104e-07 7.8188405e-06 1.4733994e-05 4.620536e-06 -2.4951032e-07 5.542542e-06 2.9341577e-06
5.8147434e-06 1.6627057e-05 -1.2503639e-05 1.472039e-06 -1.0800753e-05 5.0699646e-06 -1.0034056e-05 -1.5767879e-05
2.863155e-06 -5.4119246e-06 -1.4649572e-07 -3.566184e-05 -8.225101e-06 -1.573326e-05 -2.8191316e-05 3.7177929e-06
-3.6989577e-06 1.4571622e-05 -1.5596424e-05 -1.4057186e-05 -1.5057498e-05 -2.5717762e-05 -1.3162597e-05 7.1895124e-06
4.267711e-06 1.0465246e-05 -1.9562667e-05 -2.2442262e-05 -2.5211435e-05 -1.3617181e-05 -2.4894902e-05 -8.151746e-06
0.0128187165 0.00015011676 0.02662283 0.028661009 0.018969918 -0.0022992748 0.013748698 0.0076465392
0.020888433 0.013706674 0.052584 0.0030658578 0.014289224 0.016441038 0.016813178 0.014531169
0.029627878 0.03035844 0.0032569764 0.029444737 0.029567586 -0.000898768 0.008277656 0.01667592
0.0045809466 -0.0020821667 0.007860261 0.00037094718 -0.00048438704 -0.00028335594 0.009254263 0.008044349
-2.1851843e-05 -0.0105458 0.015495661 0.009538337 0.015534895 0.023410745 0.004594652 0.01616668
-0.011199198 0.013770351 0.020135993 0.031878036 0.042413343 0.051720772 0.026820164 0.0026370578
0.011718049 0.00023624908 0.037185363 0.012584548 0.009859689 0.002941498 0.023088899 -0.0004542329
0.00967837 0.009763286 0.017190514 0.023974203 0.023630274 0.014762109 0.035308268 0.00039939932
-0.069508284 0.16468398 -0.075178735 -0.06894235 -0.078158714 0.16778055 -0.0817203 -0.07551669
-0.07819444 -0.08417191 -0.06425545 -0.06011145 -0.07065983 -0.07097823 0.15913807 -0.06806371
-0.072130844 -0.068136804 0.17130335 -0.07333149 -0.07958386 0.16256435 0.16398692 -0.06383459
-0.077689245 0.17732611 0.16079038 0.16332896 0.16253719 -0.078433774 0.15577605 0.13440774
0.16776963 0.16956103 -0.07648641 0.14831237 -0.06815141 -0.0734465 -0.083380915 -0.071178205
0.1746109 0.14010842 -0.08635684 -0.083549455 -0.08016545 -0.075518705 -0.081252046 0.16424848
-0.07748505 0.16782261 -0.07893218 -0.061191063 -0.07054344 -0.076313086 -0.07085705 0.16079284
-0.0724176 0.16352984 -0.095763706 -0.06683003 -0.075478464 -0.07237648 -0.07579371 0.17827854

classifier.weight f4 [1, 64]
00000000: b129 aabd 62d4 73b8 7c53 f6bd 4cc0 2840
00000010: edec 0eba a660 e9b8 0288 75b6 0c5b 6939
00000020: e688 b5bd 5499 03be 9325 2f40 aafb 5140
00000030: a89c 81b6 0b6f 44bb 2461 aebd 2d07 4640
00000040: 77bd 023a 215a b73f dbd5 3340 76f8 e0b7
00000050: 04e3 bcba b06e 34b8 3b50 d5bd 69bb 22b7
00000060: 90e5 b240 c49d b9b6 9cda 2d3f 08b6 1740
00000070: 31fb 10b7 1791 4d40 9cd3 1640 aa4b 2240
00000080: 4286 67b9 0229 2ebf baee abbe 6b6a 6db9
00000090: 5934 ddb5 7821 6abe 9fe8 83b9 4a25 c0b9
000000a0: f8c3 5ebe 46a2 0fb6 9883 44b8 eb5a ddb8
000000b0: 627f 003a 246c 4c40 9557 5040 784b 2840
000000c0: e48a 1cb7 9f51 72be 5211 3b40 ac39 4238
000000d0: fc0a 94be f7fe 9db8 64e5 66be be61 3940
000000e0: 070d 4cbe 730c a6b8 7d31 0a3b e92f 77b9
000000f0: 07e3 3b40 4f3b a2be b265 21b9 65bc 2abe
-0.08308733 -5.813351e-05 -0.12027642 2.6367369 -0.0005452175 -0.00011128308 -3.6587012e-06 0.00022254529
-0.08864002 -0.12851459 2.7366683 3.2809854 -3.862737e-06 -0.0029973413 -0.08514622 3.094188
0.0004987339 1.432438 2.8099277 -2.681858e-05 -0.0014410918 -4.301843e-05 -0.10415693 -9.699587e-06
5.590523 -5.531796e-06 0.67911696 2.3704853 -8.641554e-06 3.2119806 2.3566656 2.5358682
-0.00022079892 -0.6803132 -0.3358057 -0.00022641725 -1.6481018e-06 -0.2286433 -0.00025159583 -0.00036648876
-0.21754444 -2.1403116e-06 -4.6852598e-05 -0.00010555036 0.0004901794 3.1941004 3.2553456 2.6296062
-9.330663e-06 -0.23663948 2.9229321 4.6306915e-05 -0.2891463 -7.533834e-05 -0.22548443 2.8965907
-0.19926845 -7.917816e-05 0.0021086626 -0.00023573604 2.9357316 -0.31685874 -0.00015392041 -0.1667343
